…
2024-12-09 05:13:17,828 INFO: 49438 is random initialized by: cat, 2368
2024-12-09 05:13:17,828 INFO: 49439 is random initialized by: cat, 2368
2024-12-09 05:13:17,832 INFO: optimizing embedding using lr: 0.001
2024-12-09 05:13:17,847 INFO: optimizing text_encoder (48 LoRAs), using lr: 1e-05
2024-12-09 05:13:17,885 INFO: optimizing unet (128 LoRAs), using lr: 0.0001
2024-12-09 05:13:17,885 INFO: Network [EDLoRA] is created.
2024-12-09 05:13:19,640 INFO: Network: DistributedDataParallel - EDLoRA, with parameters: 1,067,351,979
2024-12-09 05:13:19,640 INFO: EDLoRA(
  (vae): AutoencoderKL(
    (encoder): Encoder(
      (conv_in): Conv2d(3, 128, kernel_size=(3, 3), stride=(1, 1), padding=(1, 1))
      (down_blocks): ModuleList(
        (0): DownEncoderBlock2D(
          (resnets): ModuleList(
            (0-1): 2 x ResnetBlock2D(
              (norm1): GroupNorm(32, 128, eps=1e-06, affine=True)
              (conv1): Conv2d(128, 128, kernel_size=(3, 3), stride=(1, 1), padding=(1, 1))
              (norm2): GroupNorm(32, 128, eps=1e-06, affine=True)
              (dropout): Dropout(p=0.0, inplace=False)
              (conv2): Conv2d(128, 128, kernel_size=(3, 3), stride=(1, 1), padding=(1, 1))
              (nonlinearity): SiLU()
            )
          )
          (downsamplers): ModuleList(
            (0): Downsample2D(
              (conv): Conv2d(128, 128, kernel_size=(3, 3), stride=(2, 2))
            )
          )
        )
        (1): DownEncoderBlock2D(
          (resnets): ModuleList(
            (0): ResnetBlock2D(
              (norm1): GroupNorm(32, 128, eps=1e-06, affine=True)
              (conv1): Conv2d(128, 256, kernel_size=(3, 3), stride=(1, 1), padding=(1, 1))
              (norm2): GroupNorm(32, 256, eps=1e-06, affine=True)
              (dropout): Dropout(p=0.0, inplace=False)
              (conv2): Conv2d(256, 256, kernel_size=(3, 3), stride=(1, 1), padding=(1, 1))
              (nonlinearity): SiLU()
              (conv_shortcut): Conv2d(128, 256, kernel_size=(1, 1), stride=(1, 1))
            )
            (1): ResnetBlock2D(
              (norm1): GroupNorm(32, 256, eps=1e-06, affine=True)
              (conv1): Conv2d(256, 256, kernel_size=(3, 3), stride=(1, 1), padding=(1, 1))
              (norm2): GroupNorm(32, 256, eps=1e-06, affine=True)
              (dropout): Dropout(p=0.0, inplace=False)
              (conv2): Conv2d(256, 256, kernel_size=(3, 3), stride=(1, 1), padding=(1, 1))
              (nonlinearity): SiLU()
            )
          )
          (downsamplers): ModuleList(
            (0): Downsample2D(
              (conv): Conv2d(256, 256, kernel_size=(3, 3), stride=(2, 2))
            )
          )
        )
        (2): DownEncoderBlock2D(
          (resnets): ModuleList(
            (0): ResnetBlock2D(
              (norm1): GroupNorm(32, 256, eps=1e-06, affine=True)
              (conv1): Conv2d(256, 512, kernel_size=(3, 3), stride=(1, 1), padding=(1, 1))
              (norm2): GroupNorm(32, 512, eps=1e-06, affine=True)
              (dropout): Dropout(p=0.0, inplace=False)
              (conv2): Conv2d(512, 512, kernel_size=(3, 3), stride=(1, 1), padding=(1, 1))
              (nonlinearity): SiLU()
              (conv_shortcut): Conv2d(256, 512, kernel_size=(1, 1), stride=(1, 1))
            )
            (1): ResnetBlock2D(
              (norm1): GroupNorm(32, 512, eps=1e-06, affine=True)
              (conv1): Conv2d(512, 512, kernel_size=(3, 3), stride=(1, 1), padding=(1, 1))
              (norm2): GroupNorm(32, 512, eps=1e-06, affine=True)
              (dropout): Dropout(p=0.0, inplace=False)
              (conv2): Conv2d(512, 512, kernel_size=(3, 3), stride=(1, 1), padding=(1, 1))
              (nonlinearity): SiLU()
            )
          )
          (downsamplers): ModuleList(
            (0): Downsample2D(
              (conv): Conv2d(512, 512, kernel_size=(3, 3), stride=(2, 2))
            )
          )
        )
        (3): DownEncoderBlock2D(
          (resnets): ModuleList(
            (0-1): 2 x ResnetBlock2D(
              (norm1): GroupNorm(32, 512, eps=1e-06, affine=True)
              (conv1): Conv2d(512, 512, kernel_size=(3, 3), stride=(1, 1), padding=(1, 1))
              (norm2): GroupNorm(32, 512, eps=1e-06, affine=True)
              (dropout): Dropout(p=0.0, inplace=False)
              (conv2): Conv2d(512, 512, kernel_size=(3, 3), stride=(1, 1), padding=(1, 1))
              (nonlinearity): SiLU()
            )
          )
        )
      )
      (mid_block): UNetMidBlock2D(
        (attentions): ModuleList(
          (0): AttentionBlock(
            (group_norm): GroupNorm(32, 512, eps=1e-06, affine=True)
            (query): Linear(in_features=512, out_features=512, bias=True)
            (key): Linear(in_features=512, out_features=512, bias=True)
            (value): Linear(in_features=512, out_features=512, bias=True)
            (proj_attn): Linear(in_features=512, out_features=512, bias=True)
          )
        )
        (resnets): ModuleList(
          (0-1): 2 x ResnetBlock2D(
            (norm1): GroupNorm(32, 512, eps=1e-06, affine=True)
            (conv1): Conv2d(512, 512, kernel_size=(3, 3), stride=(1, 1), padding=(1, 1))
            (norm2): GroupNorm(32, 512, eps=1e-06, affine=True)
            (dropout): Dropout(p=0.0, inplace=False)
            (conv2): Conv2d(512, 512, kernel_size=(3, 3), stride=(1, 1), padding=(1, 1))
            (nonlinearity): SiLU()
          )
        )
      )
      (conv_norm_out): GroupNorm(32, 512, eps=1e-06, affine=True)
      (conv_act): SiLU()
      (conv_out): Conv2d(512, 8, kernel_size=(3, 3), stride=(1, 1), padding=(1, 1))
    )
    (decoder): Decoder(
      (conv_in): Conv2d(4, 512, kernel_size=(3, 3), stride=(1, 1), padding=(1, 1))
      (up_blocks): ModuleList(
        (0-1): 2 x UpDecoderBlock2D(
          (resnets): ModuleList(
            (0-2): 3 x ResnetBlock2D(
              (norm1): GroupNorm(32, 512, eps=1e-06, affine=True)
              (conv1): Conv2d(512, 512, kernel_size=(3, 3), stride=(1, 1), padding=(1, 1))
              (norm2): GroupNorm(32, 512, eps=1e-06, affine=True)
              (dropout): Dropout(p=0.0, inplace=False)
              (conv2): Conv2d(512, 512, kernel_size=(3, 3), stride=(1, 1), padding=(1, 1))
              (nonlinearity): SiLU()
            )
          )
          (upsamplers): ModuleList(
            (0): Upsample2D(
              (conv): Conv2d(512, 512, kernel_size=(3, 3), stride=(1, 1), padding=(1, 1))
            )
          )
        )
        (2): UpDecoderBlock2D(
          (resnets): ModuleList(
            (0): ResnetBlock2D(
              (norm1): GroupNorm(32, 512, eps=1e-06, affine=True)
              (conv1): Conv2d(512, 256, kernel_size=(3, 3), stride=(1, 1), padding=(1, 1))
              (norm2): GroupNorm(32, 256, eps=1e-06, affine=True)
              (dropout): Dropout(p=0.0, inplace=False)
              (conv2): Conv2d(256, 256, kernel_size=(3, 3), stride=(1, 1), padding=(1, 1))
              (nonlinearity): SiLU()
              (conv_shortcut): Conv2d(512, 256, kernel_size=(1, 1), stride=(1, 1))
            )
            (1-2): 2 x ResnetBlock2D(
              (norm1): GroupNorm(32, 256, eps=1e-06, affine=True)
              (conv1): Conv2d(256, 256, kernel_size=(3, 3), stride=(1, 1), padding=(1, 1))
              (norm2): GroupNorm(32, 256, eps=1e-06, affine=True)
              (dropout): Dropout(p=0.0, inplace=False)
              (conv2): Conv2d(256, 256, kernel_size=(3, 3), stride=(1, 1), padding=(1, 1))
              (nonlinearity): SiLU()
            )
          )
          (upsamplers): ModuleList(
            (0): Upsample2D(
              (conv): Conv2d(256, 256, kernel_size=(3, 3), stride=(1, 1), padding=(1, 1))
            )
          )
        )
        (3): UpDecoderBlock2D(
          (resnets): ModuleList(
            (0): ResnetBlock2D(
              (norm1): GroupNorm(32, 256, eps=1e-06, affine=True)
              (conv1): Conv2d(256, 128, kernel_size=(3, 3), stride=(1, 1), padding=(1, 1))
              (norm2): GroupNorm(32, 128, eps=1e-06, affine=True)
              (dropout): Dropout(p=0.0, inplace=False)
              (conv2): Conv2d(128, 128, kernel_size=(3, 3), stride=(1, 1), padding=(1, 1))
              (nonlinearity): SiLU()
              (conv_shortcut): Conv2d(256, 128, kernel_size=(1, 1), stride=(1, 1))
            )
            (1-2): 2 x ResnetBlock2D(
              (norm1): GroupNorm(32, 128, eps=1e-06, affine=True)
              (conv1): Conv2d(128, 128, kernel_size=(3, 3), stride=(1, 1), padding=(1, 1))
              (norm2): GroupNorm(32, 128, eps=1e-06, affine=True)
              (dropout): Dropout(p=0.0, inplace=False)
              (conv2): Conv2d(128, 128, kernel_size=(3, 3), stride=(1, 1), padding=(1, 1))
              (nonlinearity): SiLU()
            )
          )
        )
      )
      (mid_block): UNetMidBlock2D(
        (attentions): ModuleList(
          (0): AttentionBlock(
            (group_norm): GroupNorm(32, 512, eps=1e-06, affine=True)
            (query): Linear(in_features=512, out_features=512, bias=True)
            (key): Linear(in_features=512, out_features=512, bias=True)
            (value): Linear(in_features=512, out_features=512, bias=True)
            (proj_attn): Linear(in_features=512, out_features=512, bias=True)
          )
        )
        (resnets): ModuleList(
          (0-1): 2 x ResnetBlock2D(
            (norm1): GroupNorm(32, 512, eps=1e-06, affine=True)
            (conv1): Conv2d(512, 512, kernel_size=(3, 3), stride=(1, 1), padding=(1, 1))
            (norm2): GroupNorm(32, 512, eps=1e-06, affine=True)
            (dropout): Dropout(p=0.0, inplace=False)
            (conv2): Conv2d(512, 512, kernel_size=(3, 3), stride=(1, 1), padding=(1, 1))
            (nonlinearity): SiLU()
          )
        )
      )
      (conv_norm_out): GroupNorm(32, 128, eps=1e-06, affine=True)
      (conv_act): SiLU()
      (conv_out): Conv2d(128, 3, kernel_size=(3, 3), stride=(1, 1), padding=(1, 1))
    )
    (quant_conv): Conv2d(8, 8, kernel_size=(1, 1), stride=(1, 1))
    (post_quant_conv): Conv2d(4, 4, kernel_size=(1, 1), stride=(1, 1))
  )
  (text_encoder): CLIPTextModel(
    (text_model): CLIPTextTransformer(
      (embeddings): CLIPTextEmbeddings(
        (token_embedding): Embedding(49440, 768)
        (position_embedding): Embedding(77, 768)
      )
      (encoder): CLIPEncoder(
        (layers): ModuleList(
          (0-11): 12 x CLIPEncoderLayer(
            (self_attn): CLIPSdpaAttention(
              (k_proj): Linear(in_features=768, out_features=768, bias=True)
              (v_proj): Linear(in_features=768, out_features=768, bias=True)
              (q_proj): Linear(in_features=768, out_features=768, bias=True)
              (out_proj): Linear(in_features=768, out_features=768, bias=True)
            )
            (layer_norm1): LayerNorm((768,), eps=1e-05, elementwise_affine=True)
            (mlp): CLIPMLP(
              (activation_fn): QuickGELUActivation()
              (fc1): Linear(in_features=768, out_features=3072, bias=True)
              (fc2): Linear(in_features=3072, out_features=768, bias=True)
            )
            (layer_norm2): LayerNorm((768,), eps=1e-05, elementwise_affine=True)
          )
        )
      )
      (final_layer_norm): LayerNorm((768,), eps=1e-05, elementwise_affine=True)
    )
  )
  (unet): UNet2DConditionModel(
    (conv_in): Conv2d(4, 320, kernel_size=(3, 3), stride=(1, 1), padding=(1, 1))
    (time_proj): Timesteps()
    (time_embedding): TimestepEmbedding(
      (linear_1): Linear(in_features=320, out_features=1280, bias=True)
      (act): SiLU()
      (linear_2): Linear(in_features=1280, out_features=1280, bias=True)
    )
    (down_blocks): ModuleList(
      (0): CrossAttnDownBlock2D(
        (attentions): ModuleList(
          (0-1): 2 x Transformer2DModel(
            (norm): GroupNorm(32, 320, eps=1e-06, affine=True)
            (proj_in): Conv2d(320, 320, kernel_size=(1, 1), stride=(1, 1))
            (transformer_blocks): ModuleList(
              (0): BasicTransformerBlock(
                (attn1): CrossAttention(
                  (to_q): Linear(in_features=320, out_features=320, bias=False)
                  (to_k): Linear(in_features=320, out_features=320, bias=False)
                  (to_v): Linear(in_features=320, out_features=320, bias=False)
                  (to_out): ModuleList(
                    (0): Linear(in_features=320, out_features=320, bias=True)
                    (1): Dropout(p=0.0, inplace=False)
                  )
                )
                (ff): FeedForward(
                  (net): ModuleList(
                    (0): GEGLU(
                      (proj): Linear(in_features=320, out_features=2560, bias=True)
                    )
                    (1): Dropout(p=0.0, inplace=False)
                    (2): Linear(in_features=1280, out_features=320, bias=True)
                  )
                )
                (attn2): CrossAttention(
                  (to_q): Linear(in_features=320, out_features=320, bias=False)
                  (to_k): Linear(in_features=768, out_features=320, bias=False)
                  (to_v): Linear(in_features=768, out_features=320, bias=False)
                  (to_out): ModuleList(
                    (0): Linear(in_features=320, out_features=320, bias=True)
                    (1): Dropout(p=0.0, inplace=False)
                  )
                )
                (norm1): LayerNorm((320,), eps=1e-05, elementwise_affine=True)
                (norm2): LayerNorm((320,), eps=1e-05, elementwise_affine=True)
                (norm3): LayerNorm((320,), eps=1e-05, elementwise_affine=True)
              )
            )
            (proj_out): Conv2d(320, 320, kernel_size=(1, 1), stride=(1, 1))
          )
        )
        (resnets): ModuleList(
          (0-1): 2 x ResnetBlock2D(
            (norm1): GroupNorm(32, 320, eps=1e-05, affine=True)
            (conv1): Conv2d(320, 320, kernel_size=(3, 3), stride=(1, 1), padding=(1, 1))
            (time_emb_proj): Linear(in_features=1280, out_features=320, bias=True)
            (norm2): GroupNorm(32, 320, eps=1e-05, affine=True)
            (dropout): Dropout(p=0.0, inplace=False)
            (conv2): Conv2d(320, 320, kernel_size=(3, 3), stride=(1, 1), padding=(1, 1))
            (nonlinearity): SiLU()
          )
        )
        (downsamplers): ModuleList(
          (0): Downsample2D(
            (conv): Conv2d(320, 320, kernel_size=(3, 3), stride=(2, 2), padding=(1, 1))
          )
        )
      )
      (1): CrossAttnDownBlock2D(
        (attentions): ModuleList(
          (0-1): 2 x Transformer2DModel(
            (norm): GroupNorm(32, 640, eps=1e-06, affine=True)
            (proj_in): Conv2d(640, 640, kernel_size=(1, 1), stride=(1, 1))
            (transformer_blocks): ModuleList(
              (0): BasicTransformerBlock(
                (attn1): CrossAttention(
                  (to_q): Linear(in_features=640, out_features=640, bias=False)
                  (to_k): Linear(in_features=640, out_features=640, bias=False)
                  (to_v): Linear(in_features=640, out_features=640, bias=False)
                  (to_out): ModuleList(
                    (0): Linear(in_features=640, out_features=640, bias=True)
                    (1): Dropout(p=0.0, inplace=False)
                  )
                )
                (ff): FeedForward(
                  (net): ModuleList(
                    (0): GEGLU(
                      (proj): Linear(in_features=640, out_features=5120, bias=True)
                    )
                    (1): Dropout(p=0.0, inplace=False)
                    (2): Linear(in_features=2560, out_features=640, bias=True)
                  )
                )
                (attn2): CrossAttention(
                  (to_q): Linear(in_features=640, out_features=640, bias=False)
                  (to_k): Linear(in_features=768, out_features=640, bias=False)
                  (to_v): Linear(in_features=768, out_features=640, bias=False)
                  (to_out): ModuleList(
                    (0): Linear(in_features=640, out_features=640, bias=True)
                    (1): Dropout(p=0.0, inplace=False)
                  )
                )
                (norm1): LayerNorm((640,), eps=1e-05, elementwise_affine=True)
                (norm2): LayerNorm((640,), eps=1e-05, elementwise_affine=True)
                (norm3): LayerNorm((640,), eps=1e-05, elementwise_affine=True)
              )
            )
            (proj_out): Conv2d(640, 640, kernel_size=(1, 1), stride=(1, 1))
          )
        )
        (resnets): ModuleList(
          (0): ResnetBlock2D(
            (norm1): GroupNorm(32, 320, eps=1e-05, affine=True)
            (conv1): Conv2d(320, 640, kernel_size=(3, 3), stride=(1, 1), padding=(1, 1))
            (time_emb_proj): Linear(in_features=1280, out_features=640, bias=True)
            (norm2): GroupNorm(32, 640, eps=1e-05, affine=True)
            (dropout): Dropout(p=0.0, inplace=False)
            (conv2): Conv2d(640, 640, kernel_size=(3, 3), stride=(1, 1), padding=(1, 1))
            (nonlinearity): SiLU()
            (conv_shortcut): Conv2d(320, 640, kernel_size=(1, 1), stride=(1, 1))
          )
          (1): ResnetBlock2D(
            (norm1): GroupNorm(32, 640, eps=1e-05, affine=True)
            (conv1): Conv2d(640, 640, kernel_size=(3, 3), stride=(1, 1), padding=(1, 1))
            (time_emb_proj): Linear(in_features=1280, out_features=640, bias=True)
            (norm2): GroupNorm(32, 640, eps=1e-05, affine=True)
            (dropout): Dropout(p=0.0, inplace=False)
            (conv2): Conv2d(640, 640, kernel_size=(3, 3), stride=(1, 1), padding=(1, 1))
            (nonlinearity): SiLU()
          )
        )
        (downsamplers): ModuleList(
          (0): Downsample2D(
            (conv): Conv2d(640, 640, kernel_size=(3, 3), stride=(2, 2), padding=(1, 1))
          )
        )
      )
      (2): CrossAttnDownBlock2D(
        (attentions): ModuleList(
          (0-1): 2 x Transformer2DModel(
            (norm): GroupNorm(32, 1280, eps=1e-06, affine=True)
            (proj_in): Conv2d(1280, 1280, kernel_size=(1, 1), stride=(1, 1))
            (transformer_blocks): ModuleList(
              (0): BasicTransformerBlock(
                (attn1): CrossAttention(
                  (to_q): Linear(in_features=1280, out_features=1280, bias=False)
                  (to_k): Linear(in_features=1280, out_features=1280, bias=False)
                  (to_v): Linear(in_features=1280, out_features=1280, bias=False)
                  (to_out): ModuleList(
                    (0): Linear(in_features=1280, out_features=1280, bias=True)
                    (1): Dropout(p=0.0, inplace=False)
                  )
                )
                (ff): FeedForward(
                  (net): ModuleList(
                    (0): GEGLU(
                      (proj): Linear(in_features=1280, out_features=10240, bias=True)
                    )
                    (1): Dropout(p=0.0, inplace=False)
                    (2): Linear(in_features=5120, out_features=1280, bias=True)
                  )
                )
                (attn2): CrossAttention(
                  (to_q): Linear(in_features=1280, out_features=1280, bias=False)
                  (to_k): Linear(in_features=768, out_features=1280, bias=False)
                  (to_v): Linear(in_features=768, out_features=1280, bias=False)
                  (to_out): ModuleList(
                    (0): Linear(in_features=1280, out_features=1280, bias=True)
                    (1): Dropout(p=0.0, inplace=False)
                  )
                )
                (norm1): LayerNorm((1280,), eps=1e-05, elementwise_affine=True)
                (norm2): LayerNorm((1280,), eps=1e-05, elementwise_affine=True)
                (norm3): LayerNorm((1280,), eps=1e-05, elementwise_affine=True)
              )
            )
            (proj_out): Conv2d(1280, 1280, kernel_size=(1, 1), stride=(1, 1))
          )
        )
        (resnets): ModuleList(
          (0): ResnetBlock2D(
            (norm1): GroupNorm(32, 640, eps=1e-05, affine=True)
            (conv1): Conv2d(640, 1280, kernel_size=(3, 3), stride=(1, 1), padding=(1, 1))
            (time_emb_proj): Linear(in_features=1280, out_features=1280, bias=True)
            (norm2): GroupNorm(32, 1280, eps=1e-05, affine=True)
            (dropout): Dropout(p=0.0, inplace=False)
            (conv2): Conv2d(1280, 1280, kernel_size=(3, 3), stride=(1, 1), padding=(1, 1))
            (nonlinearity): SiLU()
            (conv_shortcut): Conv2d(640, 1280, kernel_size=(1, 1), stride=(1, 1))
          )
          (1): ResnetBlock2D(
            (norm1): GroupNorm(32, 1280, eps=1e-05, affine=True)
            (conv1): Conv2d(1280, 1280, kernel_size=(3, 3), stride=(1, 1), padding=(1, 1))
            (time_emb_proj): Linear(in_features=1280, out_features=1280, bias=True)
            (norm2): GroupNorm(32, 1280, eps=1e-05, affine=True)
            (dropout): Dropout(p=0.0, inplace=False)
            (conv2): Conv2d(1280, 1280, kernel_size=(3, 3), stride=(1, 1), padding=(1, 1))
            (nonlinearity): SiLU()
          )
        )
        (downsamplers): ModuleList(
          (0): Downsample2D(
            (conv): Conv2d(1280, 1280, kernel_size=(3, 3), stride=(2, 2), padding=(1, 1))
          )
        )
      )
      (3): DownBlock2D(
        (resnets): ModuleList(
          (0-1): 2 x ResnetBlock2D(
            (norm1): GroupNorm(32, 1280, eps=1e-05, affine=True)
            (conv1): Conv2d(1280, 1280, kernel_size=(3, 3), stride=(1, 1), padding=(1, 1))
            (time_emb_proj): Linear(in_features=1280, out_features=1280, bias=True)
            (norm2): GroupNorm(32, 1280, eps=1e-05, affine=True)
            (dropout): Dropout(p=0.0, inplace=False)
            (conv2): Conv2d(1280, 1280, kernel_size=(3, 3), stride=(1, 1), padding=(1, 1))
            (nonlinearity): SiLU()
          )
        )
      )
    )
    (up_blocks): ModuleList(
      (0): UpBlock2D(
        (resnets): ModuleList(
          (0-2): 3 x ResnetBlock2D(
            (norm1): GroupNorm(32, 2560, eps=1e-05, affine=True)
            (conv1): Conv2d(2560, 1280, kernel_size=(3, 3), stride=(1, 1), padding=(1, 1))
            (time_emb_proj): Linear(in_features=1280, out_features=1280, bias=True)
            (norm2): GroupNorm(32, 1280, eps=1e-05, affine=True)
            (dropout): Dropout(p=0.0, inplace=False)
            (conv2): Conv2d(1280, 1280, kernel_size=(3, 3), stride=(1, 1), padding=(1, 1))
            (nonlinearity): SiLU()
            (conv_shortcut): Conv2d(2560, 1280, kernel_size=(1, 1), stride=(1, 1))
          )
        )
        (upsamplers): ModuleList(
          (0): Upsample2D(
            (conv): Conv2d(1280, 1280, kernel_size=(3, 3), stride=(1, 1), padding=(1, 1))
          )
        )
      )
      (1): CrossAttnUpBlock2D(
        (attentions): ModuleList(
          (0-2): 3 x Transformer2DModel(
            (norm): GroupNorm(32, 1280, eps=1e-06, affine=True)
            (proj_in): Conv2d(1280, 1280, kernel_size=(1, 1), stride=(1, 1))
            (transformer_blocks): ModuleList(
              (0): BasicTransformerBlock(
                (attn1): CrossAttention(
                  (to_q): Linear(in_features=1280, out_features=1280, bias=False)
                  (to_k): Linear(in_features=1280, out_features=1280, bias=False)
                  (to_v): Linear(in_features=1280, out_features=1280, bias=False)
                  (to_out): ModuleList(
                    (0): Linear(in_features=1280, out_features=1280, bias=True)
                    (1): Dropout(p=0.0, inplace=False)
                  )
                )
                (ff): FeedForward(
                  (net): ModuleList(
                    (0): GEGLU(
                      (proj): Linear(in_features=1280, out_features=10240, bias=True)
                    )
                    (1): Dropout(p=0.0, inplace=False)
                    (2): Linear(in_features=5120, out_features=1280, bias=True)
                  )
                )
                (attn2): CrossAttention(
                  (to_q): Linear(in_features=1280, out_features=1280, bias=False)
                  (to_k): Linear(in_features=768, out_features=1280, bias=False)
                  (to_v): Linear(in_features=768, out_features=1280, bias=False)
                  (to_out): ModuleList(
                    (0): Linear(in_features=1280, out_features=1280, bias=True)
                    (1): Dropout(p=0.0, inplace=False)
                  )
                )
                (norm1): LayerNorm((1280,), eps=1e-05, elementwise_affine=True)
                (norm2): LayerNorm((1280,), eps=1e-05, elementwise_affine=True)
                (norm3): LayerNorm((1280,), eps=1e-05, elementwise_affine=True)
              )
            )
            (proj_out): Conv2d(1280, 1280, kernel_size=(1, 1), stride=(1, 1))
          )
        )
        (resnets): ModuleList(
          (0-1): 2 x ResnetBlock2D(
            (norm1): GroupNorm(32, 2560, eps=1e-05, affine=True)
            (conv1): Conv2d(2560, 1280, kernel_size=(3, 3), stride=(1, 1), padding=(1, 1))
            (time_emb_proj): Linear(in_features=1280, out_features=1280, bias=True)
            (norm2): GroupNorm(32, 1280, eps=1e-05, affine=True)
            (dropout): Dropout(p=0.0, inplace=False)
            (conv2): Conv2d(1280, 1280, kernel_size=(3, 3), stride=(1, 1), padding=(1, 1))
            (nonlinearity): SiLU()
            (conv_shortcut): Conv2d(2560, 1280, kernel_size=(1, 1), stride=(1, 1))
          )
          (2): ResnetBlock2D(
            (norm1): GroupNorm(32, 1920, eps=1e-05, affine=True)
            (conv1): Conv2d(1920, 1280, kernel_size=(3, 3), stride=(1, 1), padding=(1, 1))
            (time_emb_proj): Linear(in_features=1280, out_features=1280, bias=True)
            (norm2): GroupNorm(32, 1280, eps=1e-05, affine=True)
            (dropout): Dropout(p=0.0, inplace=False)
            (conv2): Conv2d(1280, 1280, kernel_size=(3, 3), stride=(1, 1), padding=(1, 1))
            (nonlinearity): SiLU()
            (conv_shortcut): Conv2d(1920, 1280, kernel_size=(1, 1), stride=(1, 1))
          )
        )
        (upsamplers): ModuleList(
          (0): Upsample2D(
            (conv): Conv2d(1280, 1280, kernel_size=(3, 3), stride=(1, 1), padding=(1, 1))
          )
        )
      )
      (2): CrossAttnUpBlock2D(
        (attentions): ModuleList(
          (0-2): 3 x Transformer2DModel(
            (norm): GroupNorm(32, 640, eps=1e-06, affine=True)
            (proj_in): Conv2d(640, 640, kernel_size=(1, 1), stride=(1, 1))
            (transformer_blocks): ModuleList(
              (0): BasicTransformerBlock(
                (attn1): CrossAttention(
                  (to_q): Linear(in_features=640, out_features=640, bias=False)
                  (to_k): Linear(in_features=640, out_features=640, bias=False)
                  (to_v): Linear(in_features=640, out_features=640, bias=False)
                  (to_out): ModuleList(
                    (0): Linear(in_features=640, out_features=640, bias=True)
                    (1): Dropout(p=0.0, inplace=False)
                  )
                )
                (ff): FeedForward(
                  (net): ModuleList(
                    (0): GEGLU(
                      (proj): Linear(in_features=640, out_features=5120, bias=True)
                    )
                    (1): Dropout(p=0.0, inplace=False)
                    (2): Linear(in_features=2560, out_features=640, bias=True)
                  )
                )
                (attn2): CrossAttention(
                  (to_q): Linear(in_features=640, out_features=640, bias=False)
                  (to_k): Linear(in_features=768, out_features=640, bias=False)
                  (to_v): Linear(in_features=768, out_features=640, bias=False)
                  (to_out): ModuleList(
                    (0): Linear(in_features=640, out_features=640, bias=True)
                    (1): Dropout(p=0.0, inplace=False)
                  )
                )
                (norm1): LayerNorm((640,), eps=1e-05, elementwise_affine=True)
                (norm2): LayerNorm((640,), eps=1e-05, elementwise_affine=True)
                (norm3): LayerNorm((640,), eps=1e-05, elementwise_affine=True)
              )
            )
            (proj_out): Conv2d(640, 640, kernel_size=(1, 1), stride=(1, 1))
          )
        )
        (resnets): ModuleList(
          (0): ResnetBlock2D(
            (norm1): GroupNorm(32, 1920, eps=1e-05, affine=True)
            (conv1): Conv2d(1920, 640, kernel_size=(3, 3), stride=(1, 1), padding=(1, 1))
            (time_emb_proj): Linear(in_features=1280, out_features=640, bias=True)
            (norm2): GroupNorm(32, 640, eps=1e-05, affine=True)
            (dropout): Dropout(p=0.0, inplace=False)
            (conv2): Conv2d(640, 640, kernel_size=(3, 3), stride=(1, 1), padding=(1, 1))
            (nonlinearity): SiLU()
            (conv_shortcut): Conv2d(1920, 640, kernel_size=(1, 1), stride=(1, 1))
          )
          (1): ResnetBlock2D(
            (norm1): GroupNorm(32, 1280, eps=1e-05, affine=True)
            (conv1): Conv2d(1280, 640, kernel_size=(3, 3), stride=(1, 1), padding=(1, 1))
            (time_emb_proj): Linear(in_features=1280, out_features=640, bias=True)
            (norm2): GroupNorm(32, 640, eps=1e-05, affine=True)
            (dropout): Dropout(p=0.0, inplace=False)
            (conv2): Conv2d(640, 640, kernel_size=(3, 3), stride=(1, 1), padding=(1, 1))
            (nonlinearity): SiLU()
            (conv_shortcut): Conv2d(1280, 640, kernel_size=(1, 1), stride=(1, 1))
          )
          (2): ResnetBlock2D(
            (norm1): GroupNorm(32, 960, eps=1e-05, affine=True)
            (conv1): Conv2d(960, 640, kernel_size=(3, 3), stride=(1, 1), padding=(1, 1))
            (time_emb_proj): Linear(in_features=1280, out_features=640, bias=True)
            (norm2): GroupNorm(32, 640, eps=1e-05, affine=True)
            (dropout): Dropout(p=0.0, inplace=False)
            (conv2): Conv2d(640, 640, kernel_size=(3, 3), stride=(1, 1), padding=(1, 1))
            (nonlinearity): SiLU()
            (conv_shortcut): Conv2d(960, 640, kernel_size=(1, 1), stride=(1, 1))
          )
        )
        (upsamplers): ModuleList(
          (0): Upsample2D(
            (conv): Conv2d(640, 640, kernel_size=(3, 3), stride=(1, 1), padding=(1, 1))
          )
        )
      )
      (3): CrossAttnUpBlock2D(
        (attentions): ModuleList(
          (0-2): 3 x Transformer2DModel(
            (norm): GroupNorm(32, 320, eps=1e-06, affine=True)
            (proj_in): Conv2d(320, 320, kernel_size=(1, 1), stride=(1, 1))
            (transformer_blocks): ModuleList(
              (0): BasicTransformerBlock(
                (attn1): CrossAttention(
                  (to_q): Linear(in_features=320, out_features=320, bias=False)
                  (to_k): Linear(in_features=320, out_features=320, bias=False)
                  (to_v): Linear(in_features=320, out_features=320, bias=False)
                  (to_out): ModuleList(
                    (0): Linear(in_features=320, out_features=320, bias=True)
                    (1): Dropout(p=0.0, inplace=False)
                  )
                )
                (ff): FeedForward(
                  (net): ModuleList(
                    (0): GEGLU(
                      (proj): Linear(in_features=320, out_features=2560, bias=True)
                    )
                    (1): Dropout(p=0.0, inplace=False)
                    (2): Linear(in_features=1280, out_features=320, bias=True)
                  )
                )
                (attn2): CrossAttention(
                  (to_q): Linear(in_features=320, out_features=320, bias=False)
                  (to_k): Linear(in_features=768, out_features=320, bias=False)
                  (to_v): Linear(in_features=768, out_features=320, bias=False)
                  (to_out): ModuleList(
                    (0): Linear(in_features=320, out_features=320, bias=True)
                    (1): Dropout(p=0.0, inplace=False)
                  )
                )
                (norm1): LayerNorm((320,), eps=1e-05, elementwise_affine=True)
                (norm2): LayerNorm((320,), eps=1e-05, elementwise_affine=True)
                (norm3): LayerNorm((320,), eps=1e-05, elementwise_affine=True)
              )
            )
            (proj_out): Conv2d(320, 320, kernel_size=(1, 1), stride=(1, 1))
          )
        )
        (resnets): ModuleList(
          (0): ResnetBlock2D(
            (norm1): GroupNorm(32, 960, eps=1e-05, affine=True)
            (conv1): Conv2d(960, 320, kernel_size=(3, 3), stride=(1, 1), padding=(1, 1))
            (time_emb_proj): Linear(in_features=1280, out_features=320, bias=True)
            (norm2): GroupNorm(32, 320, eps=1e-05, affine=True)
            (dropout): Dropout(p=0.0, inplace=False)
            (conv2): Conv2d(320, 320, kernel_size=(3, 3), stride=(1, 1), padding=(1, 1))
            (nonlinearity): SiLU()
            (conv_shortcut): Conv2d(960, 320, kernel_size=(1, 1), stride=(1, 1))
          )
          (1-2): 2 x ResnetBlock2D(
            (norm1): GroupNorm(32, 640, eps=1e-05, affine=True)
            (conv1): Conv2d(640, 320, kernel_size=(3, 3), stride=(1, 1), padding=(1, 1))
            (time_emb_proj): Linear(in_features=1280, out_features=320, bias=True)
            (norm2): GroupNorm(32, 320, eps=1e-05, affine=True)
            (dropout): Dropout(p=0.0, inplace=False)
            (conv2): Conv2d(320, 320, kernel_size=(3, 3), stride=(1, 1), padding=(1, 1))
            (nonlinearity): SiLU()
            (conv_shortcut): Conv2d(640, 320, kernel_size=(1, 1), stride=(1, 1))
          )
        )
      )
    )
    (mid_block): UNetMidBlock2DCrossAttn(
      (attentions): ModuleList(
        (0): Transformer2DModel(
          (norm): GroupNorm(32, 1280, eps=1e-06, affine=True)
          (proj_in): Conv2d(1280, 1280, kernel_size=(1, 1), stride=(1, 1))
          (transformer_blocks): ModuleList(
            (0): BasicTransformerBlock(
              (attn1): CrossAttention(
                (to_q): Linear(in_features=1280, out_features=1280, bias=False)
                (to_k): Linear(in_features=1280, out_features=1280, bias=False)
                (to_v): Linear(in_features=1280, out_features=1280, bias=False)
                (to_out): ModuleList(
                  (0): Linear(in_features=1280, out_features=1280, bias=True)
                  (1): Dropout(p=0.0, inplace=False)
                )
              )
              (ff): FeedForward(
                (net): ModuleList(
                  (0): GEGLU(
                    (proj): Linear(in_features=1280, out_features=10240, bias=True)
                  )
                  (1): Dropout(p=0.0, inplace=False)
                  (2): Linear(in_features=5120, out_features=1280, bias=True)
                )
              )
              (attn2): CrossAttention(
                (to_q): Linear(in_features=1280, out_features=1280, bias=False)
                (to_k): Linear(in_features=768, out_features=1280, bias=False)
                (to_v): Linear(in_features=768, out_features=1280, bias=False)
                (to_out): ModuleList(
                  (0): Linear(in_features=1280, out_features=1280, bias=True)
                  (1): Dropout(p=0.0, inplace=False)
                )
              )
              (norm1): LayerNorm((1280,), eps=1e-05, elementwise_affine=True)
              (norm2): LayerNorm((1280,), eps=1e-05, elementwise_affine=True)
              (norm3): LayerNorm((1280,), eps=1e-05, elementwise_affine=True)
            )
          )
          (proj_out): Conv2d(1280, 1280, kernel_size=(1, 1), stride=(1, 1))
        )
      )
      (resnets): ModuleList(
        (0-1): 2 x ResnetBlock2D(
          (norm1): GroupNorm(32, 1280, eps=1e-05, affine=True)
          (conv1): Conv2d(1280, 1280, kernel_size=(3, 3), stride=(1, 1), padding=(1, 1))
          (time_emb_proj): Linear(in_features=1280, out_features=1280, bias=True)
          (norm2): GroupNorm(32, 1280, eps=1e-05, affine=True)
          (dropout): Dropout(p=0.0, inplace=False)
          (conv2): Conv2d(1280, 1280, kernel_size=(3, 3), stride=(1, 1), padding=(1, 1))
          (nonlinearity): SiLU()
        )
      )
    )
    (conv_norm_out): GroupNorm(32, 320, eps=1e-05, affine=True)
    (conv_act): SiLU()
    (conv_out): Conv2d(320, 4, kernel_size=(3, 3), stride=(1, 1), padding=(1, 1))
  )
  (text_encoder_lora): ModuleList(
    (0-47): 48 x LoRALinearLayer(
      (down): Linear(in_features=768, out_features=4, bias=False)
      (up): Linear(in_features=4, out_features=768, bias=False)
    )
  )
  (unet_lora): ModuleList(
    (0-4): 5 x LoRALinearLayer(
      (down): Linear(in_features=320, out_features=4, bias=False)
      (up): Linear(in_features=4, out_features=320, bias=False)
    )
    (5-6): 2 x LoRALinearLayer(
      (down): Linear(in_features=768, out_features=4, bias=False)
      (up): Linear(in_features=4, out_features=320, bias=False)
    )
    (7-12): 6 x LoRALinearLayer(
      (down): Linear(in_features=320, out_features=4, bias=False)
      (up): Linear(in_features=4, out_features=320, bias=False)
    )
    (13-14): 2 x LoRALinearLayer(
      (down): Linear(in_features=768, out_features=4, bias=False)
      (up): Linear(in_features=4, out_features=320, bias=False)
    )
    (15): LoRALinearLayer(
      (down): Linear(in_features=320, out_features=4, bias=False)
      (up): Linear(in_features=4, out_features=320, bias=False)
    )
    (16-20): 5 x LoRALinearLayer(
      (down): Linear(in_features=640, out_features=4, bias=False)
      (up): Linear(in_features=4, out_features=640, bias=False)
    )
    (21-22): 2 x LoRALinearLayer(
      (down): Linear(in_features=768, out_features=4, bias=False)
      (up): Linear(in_features=4, out_features=640, bias=False)
    )
    (23-28): 6 x LoRALinearLayer(
      (down): Linear(in_features=640, out_features=4, bias=False)
      (up): Linear(in_features=4, out_features=640, bias=False)
    )
    (29-30): 2 x LoRALinearLayer(
      (down): Linear(in_features=768, out_features=4, bias=False)
      (up): Linear(in_features=4, out_features=640, bias=False)
    )
    (31): LoRALinearLayer(
      (down): Linear(in_features=640, out_features=4, bias=False)
      (up): Linear(in_features=4, out_features=640, bias=False)
    )
    (32-36): 5 x LoRALinearLayer(
      (down): Linear(in_features=1280, out_features=4, bias=False)
      (up): Linear(in_features=4, out_features=1280, bias=False)
    )
    (37-38): 2 x LoRALinearLayer(
      (down): Linear(in_features=768, out_features=4, bias=False)
      (up): Linear(in_features=4, out_features=1280, bias=False)
    )
    (39-44): 6 x LoRALinearLayer(
      (down): Linear(in_features=1280, out_features=4, bias=False)
      (up): Linear(in_features=4, out_features=1280, bias=False)
    )
    (45-46): 2 x LoRALinearLayer(
      (down): Linear(in_features=768, out_features=4, bias=False)
      (up): Linear(in_features=4, out_features=1280, bias=False)
    )
    (47-52): 6 x LoRALinearLayer(
      (down): Linear(in_features=1280, out_features=4, bias=False)
      (up): Linear(in_features=4, out_features=1280, bias=False)
    )
    (53-54): 2 x LoRALinearLayer(
      (down): Linear(in_features=768, out_features=4, bias=False)
      (up): Linear(in_features=4, out_features=1280, bias=False)
    )
    (55-60): 6 x LoRALinearLayer(
      (down): Linear(in_features=1280, out_features=4, bias=False)
      (up): Linear(in_features=4, out_features=1280, bias=False)
    )
    (61-62): 2 x LoRALinearLayer(
      (down): Linear(in_features=768, out_features=4, bias=False)
      (up): Linear(in_features=4, out_features=1280, bias=False)
    )
    (63-68): 6 x LoRALinearLayer(
      (down): Linear(in_features=1280, out_features=4, bias=False)
      (up): Linear(in_features=4, out_features=1280, bias=False)
    )
    (69-70): 2 x LoRALinearLayer(
      (down): Linear(in_features=768, out_features=4, bias=False)
      (up): Linear(in_features=4, out_features=1280, bias=False)
    )
    (71): LoRALinearLayer(
      (down): Linear(in_features=1280, out_features=4, bias=False)
      (up): Linear(in_features=4, out_features=1280, bias=False)
    )
    (72-76): 5 x LoRALinearLayer(
      (down): Linear(in_features=640, out_features=4, bias=False)
      (up): Linear(in_features=4, out_features=640, bias=False)
    )
    (77-78): 2 x LoRALinearLayer(
      (down): Linear(in_features=768, out_features=4, bias=False)
      (up): Linear(in_features=4, out_features=640, bias=False)
    )
    (79-84): 6 x LoRALinearLayer(
      (down): Linear(in_features=640, out_features=4, bias=False)
      (up): Linear(in_features=4, out_features=640, bias=False)
    )
    (85-86): 2 x LoRALinearLayer(
      (down): Linear(in_features=768, out_features=4, bias=False)
      (up): Linear(in_features=4, out_features=640, bias=False)
    )
    (87-92): 6 x LoRALinearLayer(
      (down): Linear(in_features=640, out_features=4, bias=False)
      (up): Linear(in_features=4, out_features=640, bias=False)
    )
    (93-94): 2 x LoRALinearLayer(
      (down): Linear(in_features=768, out_features=4, bias=False)
      (up): Linear(in_features=4, out_features=640, bias=False)
    )
    (95): LoRALinearLayer(
      (down): Linear(in_features=640, out_features=4, bias=False)
      (up): Linear(in_features=4, out_features=640, bias=False)
    )
    (96-100): 5 x LoRALinearLayer(
      (down): Linear(in_features=320, out_features=4, bias=False)
      (up): Linear(in_features=4, out_features=320, bias=False)
    )
    (101-102): 2 x LoRALinearLayer(
      (down): Linear(in_features=768, out_features=4, bias=False)
      (up): Linear(in_features=4, out_features=320, bias=False)
    )
    (103-108): 6 x LoRALinearLayer(
      (down): Linear(in_features=320, out_features=4, bias=False)
      (up): Linear(in_features=4, out_features=320, bias=False)
    )
    (109-110): 2 x LoRALinearLayer(
      (down): Linear(in_features=768, out_features=4, bias=False)
      (up): Linear(in_features=4, out_features=320, bias=False)
    )
    (111-116): 6 x LoRALinearLayer(
      (down): Linear(in_features=320, out_features=4, bias=False)
      (up): Linear(in_features=4, out_features=320, bias=False)
    )
    (117-118): 2 x LoRALinearLayer(
      (down): Linear(in_features=768, out_features=4, bias=False)
      (up): Linear(in_features=4, out_features=320, bias=False)
    )
    (119): LoRALinearLayer(
      (down): Linear(in_features=320, out_features=4, bias=False)
      (up): Linear(in_features=4, out_features=320, bias=False)
    )
    (120-124): 5 x LoRALinearLayer(
      (down): Linear(in_features=1280, out_features=4, bias=False)
      (up): Linear(in_features=4, out_features=1280, bias=False)
    )
    (125-126): 2 x LoRALinearLayer(
      (down): Linear(in_features=768, out_features=4, bias=False)
      (up): Linear(in_features=4, out_features=1280, bias=False)
    )
    (127): LoRALinearLayer(
      (down): Linear(in_features=1280, out_features=4, bias=False)
      (up): Linear(in_features=4, out_features=1280, bias=False)
    )
  )
)
2024-12-09 05:13:19,671 INFO: Loss [KDELoss] is created.
2024-12-09 05:13:19,671 INFO: Scale learning rate to: 0.00e+00
2024-12-09 05:13:19,672 INFO: Model [EDLoraModel] is created.
2024-12-09 05:13:25,997 INFO: Use cuda prefetch dataloader
2024-12-09 05:13:25,997 INFO: Start training from epoch: 0, iter: 0
2024-12-09 05:13:50,027 INFO: [cat2..][epoch:  0, iter:      10, lr:(9.910e-04,9.910e-06,9.910e-05,)] [eta: 0:16:33, time (data): 2.403 (0.639)] loss: -3.7886e-01 token_reg: -4.1070e-01 Norm_mean: 3.7727e-01 
…
